weights/congestion/model_iters_200000.pth (torch, 494659 bytes, 47 tensors)

encoder.c1.main.0.weight f4 [32, 3, 3, 3]
00000000: 591c 873c 704e 363c 3313 9a3c 5669 5bbb
00000010: 2c22 15bc 26e0 043d 9b5c 3cbb 4e66 333b
00000020: d957 ea3c 5874 073e 89c0 503d 5bf5 5b3c
00000030: 8172 4f3e b8de 9f3d f867 373d b43c 2c3e
00000040: 4d70 9c3d d19e 8a3d 5456 21be 831a babd
00000050: 244f 00be 2307 8abd 49c6 dd3c 8601 383b
00000060: c816 71be 5086 14be 1304 81be c790 43ba
00000070: ed67 a03b bc72 173d 4215 da3c f4a6 2d3d
00000080: d823 0b3d 3297 7dbb bd65 493d 1f00 b73d
00000090: 056d d3bc e1c2 a6bc f493 86bc 0742 d93c
000000a0: 8f85 ac3d 9710 163d 9ff5 b0bc 71b8 873d
000000b0: 8f6a ea3c 9479 9e3d f65f 393d 7f35 c83d
000000c0: 20b6 b63c 58f4 e8bd eb43 10bd 738b 113e
000000d0: 3651 1d3b c703 f83d c4a7 cb3d 56b9 6bbc
000000e0: d573 60bc 69df a93d 35c6 c23c 7421 c33c
000000f0: 38a8 09bc 3f9c d3bc d5c1 4f3c cfa6 2a3e
00000100: b0ad d53d 6ce3 013e de8e 213d 0bf8 01be
00000110: 3d2f 9f3c e57f 113e 9afc 1ebc 8ab2 c33d
00000120: 0952 a13d 070c a63c f673 103e 7b6f 75bd
00000130: a5ae ce3c 0322 0d3d 426c 10bc 2816 5d3d
00000140: 0956 36bc cb49 fc3c 8880 073d 46b1 273d
00000150: 8785 3dbd ab9f 1bbd 68c8 61bc 9293 863c
00000160: 5f68 603d 866f a5bc ff6c aebd ff24 b93c
00000170: 8152 d6bc 25ec ccbc 6c7a e33d 868a 663c
00000180: 96bb ffbd 76cf f4bc b950 6dbd 447f 2cbe
00000190: 4212 9b3d 140d 73bd d38d b9be d633 55be
000001a0: 54ba cabe 05b5 f3bd 3cbc b53b e359 b6bd
000001b0: 09dd 44bd 1008 57bc 328d 7b3c c5bf 88bc
000001c0: 2158 93bd 7ea4 56bd 7e26 853d 4f22 b33d
000001d0: 38d5 fa3c 7cd4 8aba f4ac f4bb 5af2 c73c
000001e0: 1ab4 f6bc f3a7 02bd af33 14bd b6b9 813d
000001f0: 14a9 b63c a0a8 0d3d e92d d1bd f1a6 c8bd
00000200: 6bd5 acbd fb8c 21bd ff5e d5bc 13fe 86bd
00000210: b975 cebc fecc 2dbd db5d 8fbb fe1b 453c
00000220: e284 3cbd aacd 53bd 00a5 64bc c054 acbb
00000230: 0e07 53bc cc1a 48bd 6e5c 78bc 4903 92bb
00000240: 12a6 a6bd d2f8 743d 1a0b 95bd 2ffa 5ebe
00000250: ef7f 08bd 553b 4cbe eb33 93be 5b16 23be
00000260: 9ed4 72be 0f59 a7bd b9aa 8abb 2a54 f0bc
00000270: f93c c03c a7bd 023d 0045 413c 40d0 36bd
00000280: b115 d53a 4a44 59bc 2ac7 123e a6f8 013e
00000290: 9529 0fbc 5260 9b3c 1a3b 963c 7f57 7cbc
000002a0: 3185 df3b aaf3 4f3d b948 933b 5d0f 323d
000002b0: ea85 00bd 3feb 813c 9b8a 593d 0ebd f73c
000002c0: 8950 2b3d 063f b13b e6b7 063d 3cbc 8a3c
000002d0: f4ad a43d be4d 96bd 19a0 f43d aa13 fc3b
000002e0: bc53 9fbd 9c30 d43d 1ec5 b23c 40ce abbd
000002f0: f37b 3b3d 2238 683d c4a2 85bd a761 2dbd
00000300: fa4d bf3c fe42 5dbd a6b8 1ebe 4040 593c
00000310: 47c9 babd 2b5f c2bc f05b 61bd cea1 e2bc
00000320: e868 b0bd 2a92 85bc d215 723c e314 cfbd
00000330: 8c37 b83c df25 d43d f245 5fbc 9adc 39bd
00000340: ad76 25bd 04b5 90bc 435f 07bd 6703 55bd
00000350: 1c85 843b 72ae e4bb 0a41 b53c 4c39 9b3c
00000360: 17ff 4cbd fc59 f63d 539a 173d 21af d0bc
00000370: cb67 253d 522b b8bc 6774 01bd d662 9d3d
00000380: 642a de3c 7aa5 dbbd c369 e9bd 50df 41bd
00000390: bd37 ecbc 8f0f eabc 0c85 d23c 8071 0fbe
000003a0: 855c ebbd c44a afbd 6bd8 693c fcca 353c
000003b0: 4f9d 6d3d 53b0 9b3c a072 c2bc 9d66 ed3c
000003c0: b097 f23b d09c 0f3d a394 a23d 0be0 e1bb
000003d0: c3f4 a5bc 11b5 25bc cfbe 81bc 42db aabc
000003e0: a105 2b3d e5ab e93c aba3 04bd 1566 b83c
000003f0: b67f ddbc 256c b53c 15df 8abc a010 3a3e
0.01649301 0.011127099 0.018807983 -0.0033479533 -0.0091023855 0.032440327 -0.002874172 0.002737421
0.028606342 0.13227975 0.050964866 0.0134251965 0.20258524 0.07806152 0.044776887 0.16820031
0.07638607 0.06768573 -0.15755588 -0.09087088 -0.1253019 -0.067396425 0.027072089 0.002807708
-0.23543847 -0.14504361 -0.2519842 -0.0007460233 0.0048952014 0.036974654 0.026621465 0.042395547
0.03396973 -0.0038694856 0.04916929 0.0893557 -0.02580882 -0.020356597 -0.016427971 0.026520742
0.08423912 0.036636915 -0.021601496 0.06626976 0.028615264 0.07738033 0.04525753 0.097758286
0.02230364 -0.1137473 -0.03522102 0.14213352 0.0024004704 0.121100955 0.09944108 -0.014387449
-0.0136994915 0.08294565 0.023776153 0.023819663 -0.008401923 -0.02583134 0.0126804905 0.16665195
0.10433519 0.12684411 0.03944289 -0.12692277 0.019431705 0.14208944 -0.00970378 0.09555538
0.07876975 0.020269407 0.14106736 -0.05992077 0.025229761 0.034456264 -0.008814873 0.053976208
-0.011128911 0.030796906 0.03308156 0.040940545 -0.04626992 -0.037994068 -0.013780691 0.016427789
0.054787036 -0.02019478 -0.08516883 0.022600649 -0.026162388 -0.025014946 0.111073345 0.0140711125
-0.12486951 -0.029884081 -0.05793831 -0.16845423 0.07571842 -0.059338644 -0.36241016 -0.20820555
-0.39595282 -0.11899761 0.005546121 -0.08903863 -0.048062358 -0.013124481 0.015353488 -0.016693005
-0.07194544 -0.052402966 0.065014824 0.08746778 0.030619249 -0.001059189 -0.0074669067 0.024407554
-0.030115176 -0.03189845 -0.0361821 0.0633425 0.02229742 0.03458464 -0.10213835 -0.097974665
-0.08439144 -0.03944109 -0.026046274 -0.065914296 -0.025202619 -0.042431824 -0.004375202 0.0120306
-0.046025164 -0.05170981 -0.013955355 -0.0052591264 -0.0128801 -0.04885368 -0.015158756 -0.004455958
-0.08137144 0.059807606 -0.07277508 -0.21775125 -0.033325132 -0.19944508 -0.28750548 -0.15926497
-0.2371392 -0.081712835 -0.0042317775 -0.029337008 0.023466574 0.031919148 0.011796236 -0.044632196
0.0016257075 -0.01326091 0.14333788 0.12692508 -0.008737941 0.018966828 0.018338729 -0.01540172
0.0068212976 0.050769486 0.004494753 0.043471683 -0.03137771 0.015859244 0.0531107 0.030241515
0.04182485 0.0054091243 0.032890223 0.01693546 0.080409914 -0.07339047 0.11944599 0.007692774
-0.07779643 0.10360834 0.021822508 -0.083889484 0.045772504 0.056694157 -0.06525186 -0.042329457
0.023352612 -0.054018967 -0.15500125 0.013259947 -0.09120422 -0.02372702 -0.05501932 -0.027665045
-0.08613759 -0.016305048 0.01477571 -0.10111406 0.022487424 0.10358786 -0.013627516 -0.045376398
-0.04039638 -0.01766444 -0.033049833 -0.052005198 0.004044188 -0.0069788033 0.02212574 0.01894822
-0.05004796 0.12028882 0.03701241 -0.025474133 0.040382188 -0.022481594 -0.03160515 0.07684867
0.027119823 -0.107249215 -0.113971256 -0.047332108 -0.028835172 -0.028571872 0.025698207 -0.1400814
-0.11492256 -0.08559182 0.0142727895 0.0110957585 0.05801135 0.019004976 -0.023736298 0.028979594
0.0074033365 0.035061657 0.079385065 -0.006893163 -0.020258313 -0.01011397 -0.015838055 -0.020856503
0.041753415 0.028524349 -0.03238265 0.022509614 -0.027038436 0.022146294 -0.016952077 0.18170404

encoder.c1.main.0.bias f4 [32]
00000000: a15c a83c 5fd5 5cbc 849a 67bc 3436 2ebc
00000010: bb31 c93c 54a9 e03c b329 573c 0c99 c93c
00000020: 1633 1abc 642d 1cbd bf41 b43c 2b35 003c
00000030: 4425 813c 6aa6 933b ee10 993d 2a20 03bc
00000040: 9f93 06bc 4651 b83c 4a8e 783d f809 b7bc
00000050: 4a89 823b 909a 8d3c 9c9f 8a3b 2888 bcbc
00000060: 65cc 56bd c7f4 133c 498e c93c fd04 e5ba
00000070: 41fe 9dbc ac8a d7ba 242d 91bc aa16 d5bb
0.020551981 -0.013478606 -0.0141359605 -0.01063304 0.024559846 0.027424492 0.0131325 0.024609111
-0.009411594 -0.038129225 0.022004006 0.007825176 0.01576484 0.004505922 0.07473932 -0.008003274
-0.008213907 0.022499692 0.060682572 -0.02234362 0.0039836513 0.017285615 0.0042304527 -0.023014143
-0.05244102 0.009030527 0.02460398 -0.00174728 -0.019286277 -0.0016444526 -0.01772172 -0.006502946

encoder.c1.main.1.weight f4 [32]
00000000: 2d75 853f de5c 663f 4150 673f 8864 813f
00000010: e08a 8a3f 12f1 7f3f 8fc5 6e3f 634d 7b3f
00000020: e702 813f e7c7 993f 0885 6d3f 0f61 703f
00000030: f56b 783f 4abf 733f e2c4 773f f6d3 603f
00000040: 871f 7a3f 169b 7f3f f195 873f fc67 833f
00000050: 112b 733f 0e9c 803f d6e5 5d3f c68a 693f
00000060: 3426 8d3f a062 743f 1f73 633f c95f 763f
00000070: cfe9 863f fc41 703f c4b9 803f 2d85 813f
1.0426384 0.89985454 0.9035683 1.0108805 1.0823631 0.9997722 0.932702 0.9816496
1.0079011 1.201413 0.92781115 0.938981 0.9703973 0.9521376 0.96784794 0.87823427
0.97704357 0.9984602 1.0592633 1.0266109 0.9498759 1.0047624 0.86678827 0.91227376
1.1027284 0.9546299 0.88847536 0.96239907 1.0540103 0.93850684 1.0056691 1.0118767

encoder.c1.main.1.bias f4 [32]
00000000: 912d 823b 54c3 f2bd 65a1 a2bd 1dc2 58be
00000010: 0b86 0ebe c901 b7bd 6dc5 abbd ceeb b5bd
00000020: b6ff 99bd a6ec e33c 8717 cdbd b7e9 563b
00000030: 4785 7dbd 79df f2bd 3cf5 d0bd 8110 f2bd
00000040: efe7 4abc 1bc0 2ebd c2a7 65bd 6fb9 913b
00000050: d755 b3bd cc08 3cbd b240 79bd 8d3e 65be
00000060: d647 98bd 73aa f7bd 4b28 c2bd 865e 34bd
00000070: fc84 27be ae1a a3bd dd8f 96bd b83b 27be
0.003972717 -0.11853662 -0.0794094 -0.21167798 -0.13918321 -0.08935887 -0.08387265 -0.08882867
-0.07519476 0.027822804 -0.10014253 0.0032793113 -0.06189468 -0.1185903 -0.10203025 -0.11819554
-0.012384399 -0.042663675 -0.05606819 0.0044471542 -0.08756607 -0.045906827 -0.060852714 -0.22387142
-0.074355766 -0.120930575 -0.094803415 -0.044035457 -0.16359323 -0.07964073 -0.073516585 -0.16331375

encoder.c1.main.3.weight f4 [32, 32, 3, 3]
00000000: fb28 e7bc acfb 9ebd 3e2f ea3c 2730 033c
00000010: 2799 67bd c28f 30bc edeb 003d 5765 6ebd
00000020: 22d9 8e3d b6c6 e03d 891c f9bc 7b26 41bd
00000030: 52e3 0a3b e1a4 533d c8c0 ab3d fe23 6abd
00000040: fa1b 9fbc 8df1 33bd 79d1 1d3d 0941 c6bd
00000050: 9d54 cabc b3e5 553d c105 7bbb 26b2 d83c
00000060: 864a ec3b 8b3a 98bd 0f14 95ba bd69 1fbc
00000070: 9cdd 4e3d 4010 bf3d 4402 fa3c b3e0 943c
00000080: 5b09 d93d a6c6 46bc 5662 80bd f5b9 8abb
00000090: 9245 89bd 3544 4ebd ca3b 9bbd 1ddd ddbc
000000a0: 232a 25bd 326f c6bd aa5a 57bd b65b 273c
000000b0: b5da 4c3d c9ad 8bbd 1439 94bd 5881 68bd
000000c0: 0373 03bd 7542 633d 8d30 763d 8a17 8d3d
000000d0: 2768 bdbc 3b23 dabc 8f95 9b3a 9397 e13c
000000e0: 5b76 373d 201e 5dbc 1274 89bd 3652 4fbd
000000f0: a8bd 3ebd fbba d0bc bf36 0f3c e095 fa3c
00000100: fb1a d9bc 895d 4f3d 2231 30bd b378 76bd
00000110: d450 b73c cd87 0e3d a27b 05bc d93f 0a3d
00000120: 4ba4 663d 55b9 9d3d 4a5f b1bd c528 e4bb
00000130: 7784 a93d 2c5d 1abc 3aae 9fbd aa3b b93d
00000140: 0269 98bd fea7 a93d 457d f33c 99a4 19bc
00000150: 9ae6 f93d 819b 28bb 4c5c aebc 75a9 003b
00000160: f959 263b c5fa cebc 082c 023d b1c4 c7bd
00000170: 894b 51bd 4443 40bd 456a 1f3d 14c3 4c3d
00000180: 2bc8 3ebd 97f6 973c 33e3 933d 1f7b 4dbd
00000190: 0bda 15bd 832a e2bc b93c 12bd 50ae 883c
000001a0: 3ee4 213d cbd9 27bd e235 293c 84c7 353d
000001b0: cb66 c33b ba27 a4bc 9394 9e3b 1ac7 d33d
000001c0: 4f98 d33c b0af d03d 9dcc e23d f5f1 ca3c
000001d0: 750a 593d a997 30bc a438 babc 2260 73bb
000001e0: e2f8 51bd 82ae 963c e33c 9e3c 1d9b 763d
000001f0: f74c b3bc dfd8 d4bb 6452 36bd db67 9abd
00000200: 01df 203d dd84 4bbd 716c 84bc c41c 983c
00000210: 7ecf 46bd f027 22bd 41db 59bd 9fa0 98bd
00000220: 9668 843c 03b9 a4bc 51a3 1bbd 1e1a 5dbd
00000230: 4175 10bd f7f6 ddbd d847 a6bd ff75 653d
00000240: 3306 bebb 0c4c 22bd d44e c1bb cc9e 2e3d
00000250: ff1c c2bb 470a cfbb b868 58bd 132e 94bc
00000260: 7111 553d 5991 5e3d c148 e23c 5a69 a63d
00000270: 83e9 803c 3d80 d63b 5ea9 023d 18ed b7bd
00000280: 66f4 7b3d 4fc2 803d 59d2 c9ba 0bd5 ba3d
00000290: 0a4f 9dba 77ce d03d e667 f63d 60ed 103d
000002a0: 258e 363d ba8c 473d 8ad4 afbd d709 a43d
000002b0: 6543 373d 678c 3f3d 6c80 36bc 9ff4 87bd
000002c0: 5366 24bd 8272 4ebd d5cf 843c 8cf3 193e
000002d0: 1694 4fbc 601b 8c3c 0b91 353d 1a91 843d
000002e0: fe7e 363d 8849 973b 40a9 8bbd 13f9 0cbc
000002f0: 0851 4f3d a522 bc3c 3ba7 2d3d e576 8d3d
00000300: 339f 5e3d 5f11 093d 92d2 833c 29dd 82bd
00000310: d7f1 4a3c 32a6 3c3c 8bf7 7bbb b75d 6a3c
00000320: 4029 12bc e0cc c3bc 472f b6bc 8c30 aa3b
00000330: 8ae4 d3bd 6bfb 06bd 8afa 513d 7ad3 a4bd
00000340: 6f7a afbd e4b4 5bbd 3590 5abd 88f9 70bd
00000350: a37f 11bd e6b1 1d3c 117b 903b 4570 80bd
00000360: 5608 2dbd 0e5c aa3c e1af 023c 85fe aebd
00000370: f48e 863c 83c2 d13c fa02 e9bd ff75 6abd
00000380: c7e5 28bc 3f56 58bd 1746 bdbd 9e20 93bd
00000390: 3c9c c4bc 216b b5bd 6410 22bd d668 2cbd
000003a0: 85cf 9c3b 1a82 28bd d409 23bd f08f 84bd
000003b0: 371f b43c 3a64 1a3c 34c1 d33c 4c69 803c
000003c0: 2954 8bbd adca d5bd a427 c0bc 81ef 8fbd
000003d0: 91a7 91bc adc1 c4ba 71d3 043d 4b32 0b3d
000003e0: a156 943d 56d2 c7bc 2e1c afbc 8dc8 3abd
000003f0: eeb3 e0bc 38c4 043c b7c3 a03c 1390 bbbd
-0.028217783 -0.07762846 0.02858698 0.008007086 -0.05654254 -0.010776462 0.031474996 -0.058202114
0.069750085 0.10975401 -0.030409114 -0.04715584 0.0021192622 0.051670913 0.083863795 -0.05716323
-0.01942252 -0.043931533 0.038529847 -0.09680373 -0.02469855 0.05222101 -0.003830299 0.026452135
0.0072110323 -0.07433041 -0.0011373776 -0.0097298 0.050504312 0.09329271 0.030518658 0.018173551
0.105974875 -0.012132322 -0.06268756 -0.0042335936 -0.067027226 -0.050358016 -0.07579763 -0.027082974
-0.040323388 -0.096891776 -0.0525767 0.010214737 0.050013263 -0.06820256 -0.07237449 -0.056763977
-0.032092106 0.0554833 0.060104895 0.06889255 -0.023120953 -0.026628127 0.0011870133 0.027538097
0.044790607 -0.013495952 -0.06711592 -0.05061551 -0.04656759 -0.025479784 0.00874108 0.030589044
-0.026502123 0.05062631 -0.043015607 -0.0601737 0.022377409 0.03479748 -0.008147152 0.033752296
0.056309026 0.07701365 -0.08660753 -0.006962868 0.08277219 -0.009421628 -0.07796903 0.09044583
-0.07441904 0.08283995 0.02972282 -0.009377622 0.12202187 -0.0025727453 -0.021284245 0.0019632254
0.0025383218 -0.02526606 0.031780273 -0.09754313 -0.051097427 -0.04693915 0.038919706 0.04999073
-0.046577614 0.0185502 0.07221069 -0.050166246 -0.036584895 -0.027608162 -0.03570244 0.016684681
0.03952431 -0.040979188 0.010327788 0.044379726 0.0059631816 -0.020038474 0.004839489 0.1034071
0.025829462 0.1018976 0.11074183 0.024773577 0.05298849 -0.010778346 -0.022732086 -0.0037136157
-0.051262744 0.018393759 0.019316142 0.06020652 -0.021887286 -0.0064955796 -0.044512168 -0.0753934
0.039275173 -0.049687255 -0.01616499 0.018568404 -0.048537724 -0.03958887 -0.053187612 -0.07452511
0.016163152 -0.020107752 -0.037997548 -0.053979985 -0.035268072 -0.108381204 -0.08119172 0.056020733
-0.005799079 -0.039623305 -0.0058992896 0.04263191 -0.0059238668 -0.006318364 -0.052834243 -0.018088376
0.052018587 0.054337833 0.027622582 0.08125563 0.015736347 0.006546049 0.031899802 -0.08980769
0.061512373 0.062870614 -0.0015397771 0.09122666 -0.0012001705 0.1019563 0.12031536 0.03538263
0.044569153 0.04871819 -0.085854605 0.08009689 0.044742007 0.046764757 -0.011139017 -0.06638455
-0.040136646 -0.050402172 0.016212383 0.15034312 -0.012669584 0.017102897 0.044327777 0.064729884
0.044554703 0.00461692 -0.06819391 -0.008604306 0.050614387 0.022965739 0.04239581 0.06907443
0.054351043 0.033463832 0.016091619 -0.06389839 0.012386761 0.011514233 -0.0038447108 0.01430457
-0.008920968 -0.023901403 -0.02223934 0.0051937755 -0.10346325 -0.032954615 0.051264323 -0.080481485
-0.08568274 -0.053639308 -0.053360183 -0.05883172 -0.035522114 0.009624934 0.004409202 -0.06271414
-0.042244278 0.020795848 0.007976503 -0.085446395 0.016425587 0.025605446 -0.11377521 -0.057241436
-0.010308689 -0.052816626 -0.09241884 -0.071839556 -0.02400028 -0.08858324 -0.039566413 -0.042092167
0.0047854804 -0.0411397 -0.039804295 -0.064727664 0.02198754 0.00942331 0.025848962 0.01567521
-0.06803162 -0.10439048 -0.023456402 -0.070281036 -0.017780097 -0.0015011333 0.03242821 0.03398351
0.07243086 -0.024392288 -0.021375742 -0.045601416 -0.027429547 0.008103423 0.019624574 -0.09158339

encoder.c1.main.3.bias f4 [32]
00000000: 895b f8b9 df78 d9b9 0aa9 e13a f81d 00ba
00000010: 4dc4 e7bb 905d c93a 0c98 4fbb ef8f 243b
00000020: bf80 3bba 9477 4138 37cb b2ba 5c78 233b
00000030: 5c27 273a 9df6 e1bb f5b8 69ba 7c22 9cb9
00000040: 7171 e839 afac c73a daaf 17bb a588 c2ba
00000050: 05fa ae39 b9f2 c33a 5257 903c 275c 853b
00000060: ed44 3b3a df7a 2c39 d78d a4ba b99e 12ba
00000070: f881 e1ba ef10 b93a 93ce 7a3a b7f2 863a
-0.00047370445 -0.0004147952 0.0017216515 -0.0004887278 -0.0070729614 0.0015362967 -0.003167632 0.0025110205
-0.00071526685 4.612615e-05 -0.0013640885 0.0024943566 0.00063764094 -0.0068958537 -0.00089158054 -0.00029780332
0.0004433501 0.0015233959 -0.0023145587 -0.0014841749 0.00033374145 0.0014949656 0.017619763 0.0040698233
0.00071437546 0.00016448971 -0.0012554479 -0.00055931095 -0.0017204871 0.0014119426 0.0009567525 0.0010295723

encoder.c1.main.4.weight f4 [32]
00000000: 66c5 623f 1ba4 423f 1b9f 4c3f c18f 5a3f
00000010: 84cf 7b3f a67b 5b3f f22e 753f 3818 7d3f
00000020: 77a2 563f 40b0 473f 4c0c 4e3f 59bb 833f
00000030: e274 653f 5e1b 8f3f 08d9 5b3f 902c 423f
00000040: e9d8 423f a6f0 573f 4b2d 6b3f 7105 6a3f
00000050: 3489 473f 862f 793f 0553 763f 6116 833f
00000060: e357 553f 1808 693f 8b13 8a3f 5b02 4e3f
00000070: 1606 593f 4956 773f d0b9 493f 1728 4f3f
0.88582456 0.76031655 0.79930276 0.853756 0.9836352 0.8573555 0.9577476 0.9886508
0.8384165 0.7800331 0.80487514 1.0291549 0.89631474 1.1180227 0.8587804 0.75849247
0.7611223 0.84351575 0.91865987 0.9141455 0.7794373 0.9733814 0.9622043 1.0241205
0.8333723 0.91027975 1.0787214 0.80472344 0.8477491 0.96616036 0.7879915 0.8092055

encoder.c1.main.4.bias f4 [32]
00000000: 8547 d6bc 392e 12be 9d61 26be e023 0cbe
00000010: 060c 85bc adba 1abe e49a e6bd 634c 21be
00000020: 7d65 62be 76a1 14be 5808 36be 627e 27bb
00000030: 4912 6dbe cc86 c73d 4060 29be a016 27be
00000040: 44da 45be 1b20 f4bd 951d e4bd a437 d6bd
00000050: e55e 26be c1f7 b13c 8d3b bd3d acc9 88bd
00000060: 4d06 1fbe 5cdc 3abe 683b a13d 278e aebd
00000070: 65d8 93be fc5f 6bbd abbf 41b7 ee33 11be
-0.02615715 -0.14275445 -0.16248174 -0.1368556 -0.016241085 -0.15110274 -0.11260012 -0.15751795
-0.22109027 -0.14514717 -0.1777662 -0.0025557508 -0.23151506 0.09742507 -0.16540623 -0.16317225
-0.19321543 -0.11920186 -0.11138455 -0.10459831 -0.16247137 0.021724584 0.09239874 -0.06679091
-0.15529747 -0.18248123 0.07872659 -0.08523207 -0.28876033 -0.057464585 -1.1548323e-05 -0.14179966

encoder.c2.main.0.weight f4 [64, 32, 3, 3]
00000000: 093b 7bbd b558 a5bc c850 87bb 890d e1ba
00000010: 0dab ad3c cb90 863d 9610 c3bc 26d4 e43c
00000020: ddbf a33d fdf8 f83a be8f 723c 240c a4bd
00000030: 1b4a ddbd a04a 873d 3b72 1bbd e349 96ba
00000040: 736b 6e3d 266e fbbb 1e04 073e 2431 3c3d
00000050: 6e51 4dbd 9204 3c3d dae2 c8bc 5bfa b7bd
00000060: 5939 983d 3f47 403b 0ae2 3b3c fc13 ffbb
00000070: 9dcd dfbd ad1f 5cbd 3a0f a53c 2cae 53bd
00000080: f542 123d 7eef 4b3d d33d 7d3c 05e3 5f3c
00000090: 7357 7f3c 8efe 46bb 775e 243b 23c7 4cbd
000000a0: 7f91 43bd 06eb abbc 5c08 e03b ce28 2c3c
000000b0: 598b 8c3c 82c8 14bc aae7 1e3d 36bc 4bbd
000000c0: d89a ac3d cf77 a93d 3f4f dbbb 4e7a e13d
000000d0: fe60 ff3d 1e39 693d 14d3 dbbc a00c 173d
000000e0: dd91 6cbd 4b49 913d d631 a13d 20ba 5cbd
000000f0: ad9e 25bc 16e8 b83d c79f 65bd 4442 29bd
00000100: 21b6 273c e6ad babd c8bb 1e3b 0537 283d
00000110: 45be 983c 435c 043d eab6 113a 172e e7bc
00000120: a04e 183c 8cbf ee3b af68 863d 2220 8b3d
00000130: 9524 cfbd 3b98 91bb b1c4 f3bc 62da a4bd
00000140: 23f8 96bd cda6 023d 1c48 233c d257 0ebd
00000150: 0ca9 f1bb d12c d1bb a056 243d 96eb 483d
00000160: 2402 8c3c edce da3d 2b46 62bd 9c0a 69bc
00000170: a733 f4bc c443 c9bb 4bae 5dbb 0bf0 c6bc
00000180: a2a7 35bc fa8c 61bd cce5 563b 64a8 643c
00000190: 9a46 d7bc 45f9 083c 8ec9 77ba ff4b 473d
000001a0: 5557 ddbc 110f a8bd 43d4 c4bd 5537 5fbd
000001b0: c41c a5bd f0a0 093d f2f3 95bd 078c 06bc
000001c0: 85a6 ae3c 1d36 77bc 8a0c 8dbd c43d babd
000001d0: 479e f1bd c0c6 a7bd aa0e 333d bcaf f0bc
000001e0: e0bb 1b3b 6594 183c 39c3 21bc e997 f7bd
000001f0: c35f 7bbd 7d72 c3bd a886 50bd c070 6b3b
00000200: e6e3 17be 7bf2 3c3d 2719 0e3e 5d66 5d3d
00000210: 9023 40bd 2818 083b c222 8cbc 7ce4 b2bc
00000220: 6acc 533d 52e1 a73d 1b19 5cbc c94e 5e3d
00000230: 325e b53c ca53 55bc 21fc 6e3d 0c19 673d
00000240: 3e23 ffba f8fa a1bd a5a6 61bd 727c c63d
00000250: 1e45 3a3c 2543 9b3d 0d5e 3d3d 2f84 24bc
00000260: 5c3e 92bc 79d7 db3a 5f7e 8d3d 0269 1abd
00000270: a90e 8abb 0744 a73d fa06 6a3d 4ace b7bd
00000280: d778 c73b 72eb 3ebb 092a 683c ba89 11bd
00000290: 5226 d73c 9d68 593b 2d55 983c 4e3a 9c3d
000002a0: 7374 cfbd 05e7 10bd 8ae4 20ba c8df 58bc
000002b0: 390a 893c e7d3 febd a681 fdbc d954 88bc
000002c0: dfc8 9abd c46a 68bc 3c97 35bd 8ec7 58bd
000002d0: e14e f63a 2651 1dbc 177f 2d3d c2f0 e93c
000002e0: 07b8 39bd 6979 143d 4f98 0d3d 1f07 c1bb
000002f0: 2fd8 973c 99c5 7c3b 41f6 743d 3da6 9b3c
00000300: c686 0a3d c250 8a3d be6e c63c 4fe9 7cbd
00000310: a3b7 b3bd 9271 113d 64ff 5abc 98bb dd3d
00000320: 9870 c73c 242c 90bd d9af 893d cf2f 363d
00000330: 21e3 b6bd 15f2 24bd f3fd 7c3c 166c e3bc
00000340: ba0a b53d 9352 523b 0c1f 8bbd 761f 5d3d
00000350: 64d1 083d 5317 9abc 322b a63d 9e28 003d
00000360: a638 a7bd 484e 893b 8ccc 413c 82a3 ed3b
00000370: 0803 983d 7812 213d 402c 31bb 3624 9abb
00000380: 1315 183d 3a6c c7bc d17a 573c 53de 7d3d
00000390: d57b 96bc a6f9 fcba 1b77 303d 6748 8ebd
000003a0: f26d 65bc ea5e cfbc 3fcb b4bb fa9c d1bc
000003b0: a6f5 4fbd 0b72 093d fa90 e9bc d173 82bc
000003c0: 0c10 8c3d c8dc d03b fc08 dc3c 0c9c 32bd
000003d0: 4fb3 fdbc 1870 19bc ead6 913d f419 823c
000003e0: f92b 593b bcfd 7e3b aace d73c 99dd 6ebd
000003f0: 54fd ee3c c91a 2b3d 133e 54bd fc95 e23c
-0.061335597 -0.0201839 -0.004129503 -0.0017170171 0.021199727 0.06570586 -0.02381162 0.027933192
0.079955794 0.0018995103 0.014804779 -0.08010128 -0.1080515 0.066060305 -0.037950736 -0.0011466112
0.05820794 -0.007673043 0.13185164 0.0459453 -0.050126486 0.045902796 -0.024522234 -0.089832984
0.07432813 0.002933934 0.011467466 -0.0077843647 -0.109278895 -0.053741146 0.020148862 -0.051679775
0.035708386 0.049788944 0.015456635 0.0136649655 0.015584814 -0.0030364129 0.002508072 -0.0499946
-0.047746178 -0.020986091 0.006836934 0.0105077755 0.01715629 -0.009081008 0.03879515 -0.04974004
0.084279716 0.08274805 -0.0066927965 0.11009656 0.12469672 0.056939237 -0.026834048 0.036877275
-0.057756294 0.07094058 0.078708336 -0.05388844 -0.010108632 0.09028642 -0.05606058 -0.04132296
0.010236294 -0.091152 0.0024220813 0.041068096 0.018645415 0.03231455 0.00055585674 -0.02822022
0.009296089 0.0072860178 0.065629356 0.06793238 -0.10114399 -0.004443196 -0.029756876 -0.08049466
-0.07371547 0.031897355 0.009965923 -0.03475172 -0.0073748883 -0.0063835164 0.040121675 0.049052797
0.017090864 0.10683999 -0.0552427 -0.014223721 -0.029809786 -0.0061421115 -0.003382581 -0.024284383
-0.01108733 -0.055066086 0.0032790778 0.013956163 -0.026278783 0.008360212 -0.0009452336 0.04865646
-0.027019182 -0.08205999 -0.09610798 -0.054496128 -0.08062127 0.033600748 -0.073219195 -0.008212096
0.021319637 -0.015088585 -0.06887157 -0.09093812 -0.11797767 -0.081922054 0.043715157 -0.029380672
0.0023763105 0.009312724 -0.009873205 -0.120895214 -0.061370622 -0.09543321 -0.05090967 0.0035925359
-0.1483303 0.046129685 0.13876782 0.0540527 -0.046908915 0.0020766351 -0.017106418 -0.021837465
0.051708616 0.08197273 -0.01343372 0.054274354 0.022139642 -0.013020465 0.058345918 0.05642037
-0.0019465459 -0.079091966 -0.055090565 0.09691705 0.011369018 0.07581166 0.046232272 -0.010041281
-0.017852 0.001677259 0.06908869 -0.0376978 -0.0042131734 0.08167272 0.05713556 -0.089748934
0.0060874033 -0.0029132036 0.014170178 -0.035531737 0.02626339 0.0033173927 0.018595302 0.07628308
-0.10129633 -0.035376567 -0.00061375706 -0.013236947 0.016728507 -0.12442761 -0.03094561 -0.016642021
-0.07557844 -0.014185611 -0.04433368 -0.052924685 0.0018791818 -0.009601867 0.04235753 0.028557185
-0.045341518 0.0362486 0.03456908 -0.0058907415 0.018535702 0.0038569926 0.05980516 0.019000167
0.033819936 0.067536846 0.024222728 -0.061745938 -0.0877526 0.0355087 -0.013366554 0.10826796
0.024345681 -0.07039669 0.067229934 0.044479188 -0.0893004 -0.04026993 0.015441406 -0.0277615
0.088399366 0.0032092675 -0.06793031 0.05398508 0.033402815 -0.01880995 0.081137076 0.031288736
-0.08165102 0.00419024 0.011828553 0.0072521577 0.07422453 0.039324254 -0.0027034432 -0.0047040237
0.037129473 -0.024343599 0.01315184 0.061979603 -0.018369595 -0.0019300475 0.043082338 -0.069474034
-0.014003264 -0.025313813 -0.005517393 -0.025587548 -0.050771378 0.033556025 -0.028511513 -0.015924366
0.06838998 0.0063739754 0.026859753 -0.04360585 -0.03096929 -0.009365104 0.0712107 0.015881516
0.0033137782 0.0038908562 0.026343662 -0.0583168 0.02917353 0.04177359 -0.05181701 0.027659409

encoder.c2.main.0.bias f4 [64]
00000000: 2fd8 2c3a 98df f139 0d8a 8f3a 313d b93a
00000010: b692 bd39 f219 e2bb b4e6 ea39 6f86 693a
00000020: 1464 c2ba 0929 7bbb 3674 1038 4db6 bc3a
00000030: 588b 97ba 3fde 72bb f289 ebb9 d82b 9c3b
00000040: e75a 3139 797b 1c3a da4a b1b9 580a f9b8
00000050: 1670 a039 d55f 083a b700 6737 cd8f ab39
00000060: 856d 45b9 927f 4dbb c9db 583a 8fa5 4f3a
00000070: f910 6b3b c193 543a 2464 bbb9 4136 c9bb
00000080: 9692 033a 8dc8 843a fbe2 cbb8 6c89 953a
00000090: c0ac 733a 8aad 3238 ca7b 6fb8 ba0d 153b
000000a0: a243 0a3a 488a 8c3a 60af b43a 2b34 72ba
000000b0: 3a5c 32bb 0c0b fc39 73b9 05bb 6b5f 27b9
000000c0: 10c0 a439 2b0f c5ba df67 1639 9c3f 3ebb
000000d0: fd60 8e3a da3c 423b b1ab d1ba 6fbd 0dbb
000000e0: 4ce2 cbb8 435b 953a fde9 fd3a ea47 f4ba
000000f0: b6c9 95b8 7d32 bb38 07ca f639 ccd7 d139
0.0006593493 0.00046133692 0.0010951177 0.0014132616 0.00036158197 -0.0069000656 0.00044803845 0.0008908277
-0.0014830851 -0.003832402 3.4440505e-05 0.0014397592 -0.0011561913 -0.0037058739 -0.0004492547 0.004765969
0.00016913899 0.00059693266 -0.0003381584 -0.00011875172 0.0003060109 0.00052022684 1.3768839e-05 0.00032722802
-0.00018828183 -0.0031356555 0.00082724966 0.00079210935 0.003586827 0.0008109175 -0.0003574203 -0.006140501
0.00050190964 0.001013057 -9.722073e-05 0.0011408753 0.0009295456 4.2600128e-05 -5.7097328e-05 0.0022743777
0.00052743603 0.0010722363 0.0013785176 -0.0009239341 -0.0027215616 0.00048073416 -0.0020404726 -0.00015961907
0.00031423615 -0.0015034428 0.0001434381 -0.0029029613 0.0010862645 0.002963832 -0.0015996603 -0.0021627804
-9.7219454e-05 0.0011394996 0.0019372102 -0.0018637155 -7.142445e-05 8.926259e-05 0.00047071298 0.00040024368

encoder.c2.main.1.weight f4 [64]
00000000: 8b69 633f c6ce 783f 923a 6f3f b2c3 803f
00000010: b104 7e3f 09b4 8c3f c098 7e3f fba8 7a3f
00000020: 7018 843f 292c 7e3f b225 773f 6a2d 703f
00000030: 8226 7e3f 7e0d 873f bf3e 813f dfc3 713f
00000040: d153 743f 8cfa 703f d685 6b3f c53d 823f
00000050: 64a2 603f 62ac 803f edc6 6a3f e2ef 7f3f
00000060: d93b 733f 71fa 6e3f db61 813f 00e0 603f
00000070: 2f57 8c3f 9c2e 783f fe45 803f 4602 8e3f
00000080: 0658 833f 18df 813f a9d6 7b3f 6c79 823f
00000090: e187 8b3f ed40 7b3f cd50 6a3f 6891 7e3f
000000a0: 9141 823f d952 863f e49c 6a3f 9da2 783f
000000b0: be5c 7a3f f1e2 7a3f 568c 833f ad27 863f
000000c0: 742f 6e3f b34b 7b3f 51fb 823f a739 853f
000000d0: 4e5e 7a3f 915d 723f 92e1 843f d98b 833f
000000e0: aa7e 743f 7b91 6e3f d951 843f 8d5b 823f
000000f0: bf5e 723f 0cc0 733f c270 673f 318d 873f
0.8883292 0.9719051 0.93448746 1.0059721 0.9922591 1.0992442 0.9945183 0.97914094
1.0319958 0.99286133 0.96541893 0.93819296 0.9927751 1.0550992 1.0097274 0.944395
0.95440394 0.94132304 0.9200109 1.01751 0.8774779 1.0052607 0.91709787 0.9997541
0.95013195 0.93350893 1.0107988 0.87841797 1.0964106 0.9694612 1.002136 1.1094444
1.0261238 1.0146208 0.9837442 1.0193305 1.0900842 0.98145944 0.9152954 0.9944062
1.0176259 1.0494033 0.91645646 0.9712313 0.97797763 0.98002535 1.0277202 1.0480858
0.9304116 0.9816238 1.0232946 1.0408219 0.9780015 0.9467402 1.0381339 1.0277053
0.95505774 0.93190736 1.0337478 1.0184189 0.9467582 0.95214915 0.9040643 1.0589963

encoder.c2.main.1.bias f4 [64]
00000000: 0919 a1bd 531f 84be aec0 7bbe 2e4b cebd
00000010: 34bd 23be 25ad dfbd c731 33be 0648 64be
00000020: e973 6dbe 7148 53be 807f e8bd 774c 37be
00000030: 0254 a2bd 1e4c 0ebe e1e9 60be a89e 87be
00000040: b09a 39be 2b1c 29be 56ce 97be 9eb5 34be
00000050: 1086 2ebe 6347 13be 70a6 7abe 44a2 1fbe
00000060: b179 1ebe e431 82be c97a 90be 43de 39be
00000070: 1805 2cbe 41a5 07be b7a6 24bd c844 febd
00000080: 8816 44bd 019f 2ebe a67b 36be f934 37be
00000090: cc1d 87be a088 c6bd 451a 1ebe 7a58 32be
000000a0: d5d3 16be 372f 5abe 63ab 93be f9e9 89be
000000b0: b7b9 8ebe 0d86 3bbe 22ad 17bd 1cb5 08be
000000c0: cbbd 22be 03a6 30be 05d1 f8bd 9e0b 3cbe
000000d0: 1a69 84be 5c2f 00be 863a 5bbe 8318 f0bd
000000e0: db69 fbbc 3ce1 80be c5f9 d5bc 948e cebe
000000f0: 5db2 14be 4484 2dbe f92f 57be 1338 57be
-0.07866103 -0.25805148 -0.2458522 -0.10072933 -0.15990144 -0.109216966 -0.17499457 -0.222931
-0.23188747 -0.20633103 -0.11352444 -0.17900263 -0.079261795 -0.13896224 -0.21964218 -0.26488233
-0.18125415 -0.16514651 -0.2964961 -0.17647406 -0.17043328 -0.143827 -0.24477553 -0.15589243
-0.15476109 -0.2542869 -0.28218678 -0.18151192 -0.16798818 -0.13246633 -0.040198054 -0.12415463
-0.04787305 -0.17052843 -0.17820606 -0.17891301 -0.2638992 -0.09694028 -0.15439709 -0.17416564
-0.14729245 -0.21307074 -0.28841695 -0.2693632 -0.27876064 -0.18312855 -0.037030347 -0.13350338
-0.15892713 -0.17250828 -0.12149242 -0.18363807 -0.25861436 -0.12518066 -0.21409044 -0.11723425
-0.030690124 -0.2517184 -0.026120076 -0.40343153 -0.14521165 -0.16944987 -0.21014394 -0.21017484

encoder.c2.main.3.weight f4 [64, 64, 3, 3]
00000000: 730c 143c 45f1 41bd 6708 96bd 7e00 b1bc
00000010: 05e9 86bc bba5 e6bc c7ab ebbc 4320 18bd
00000020: acee be3c 7fab a7bd 64d6 a23a b3f7 74bd
00000030: d24c 5ebd 3865 0c3d 4f35 d63c 6ea1 d03c
00000040: be36 b03d 41dd 9a3d da82 943d 47ef b2bd
00000050: 2913 9a3d 3fc5 2fbc ecd5 42bd c94e 5b3d
00000060: ee21 443d 9da7 6fbc d65c e0bc 5940 c63d
00000070: 8468 17bd caaf 193d 79a0 623d aadc 80bd
00000080: b113 a0bc c5ad 4f3d 19fb 15bb 054c febc
00000090: d0b7 073d bd75 7e3d 5e9e 673b e6d8 0cbe
000000a0: 4d73 70bd 10f2 dc3c 0af0 21be c8dd b3bc
000000b0: 04f2 6bbd 7762 f33d c7c9 303c 6aec 613d
000000c0: afe1 ec3b f800 38bd 7c31 0abc 33c9 dbb9
000000d0: fe6b b5bd 2d50 4bbd cee0 9cbc 0975 11bd
000000e0: 58a5 b7bd a23f c8bc 6dae e03a 186a 66bd
000000f0: 2fe0 1f3e a16e a63d 3f20 ff3d dfdc 0bbd
00000100: 5687 db3b 8d4a 503d 534f eebd 06ee 82bd
00000110: 3015 32bc 97f4 373c dab8 6d3d a999 27bc
00000120: 6c50 cebb c7c4 cdbb 98bf 26bd 8963 95bb
00000130: bd10 b23c dc7e 76bd 2c74 13bd f78d 86bd
00000140: eec1 fbbd 5ffe 79bd c6b5 8fbd 0274 e3bd
00000150: 0ba4 11bd 28a0 75bd e1e8 b4bd 1203 ddbc
00000160: c2a0 ca3a d606 98bd 6a36 c6bd 0d2a f4bc
00000170: 7669 34b8 b854 0abe c754 14bd f9d0 373b
00000180: 94ba 82bd 7be0 283d cb17 8a3d 4b4b bd3d
00000190: ec31 abbc 71ae 1ebc 705a 7dbd f8f9 38bd
000001a0: 3241 4dbc 3ec6 a83b c5f0 46bd 035a cd3b
000001b0: 36b1 69bd 38a6 073c bafb ef3d 4d47 3dbd
000001c0: 5488 7cbd 5d0c 993c ff8c f83c 998b 0cbd
000001d0: 4b99 453d b95d 94bd 5144 a03a 2357 2b3c
000001e0: 3563 2b3c f141 023e 3747 c23d bea9 0dbd
000001f0: 5057 b9bc bf03 26bd a378 5d3d 3e06 d2bc
00000200: 0189 6cbd 1c66 c8bc 42a8 7ebd a19f cabc
00000210: b819 f13c 083b f13c 566c d4bb 65e9 f8bd
00000220: a5e6 acbd 600d b7bd a38f 06bc 11fb 58bc
00000230: 38f4 5cbd 5e26 a63c 925b fa3c 26d0 9d3c
00000240: 9f1b 0f3d cfe9 f63c deab 193d 4da8 8fbd
00000250: ebed adbd ae2a 21bd e149 59bd a1a1 55bb
00000260: 2e86 bd3c 1868 ca3d f5a3 073e 3401 e23d
00000270: 609b 0dbd 0524 143c 0052 37bd 3a68 37bd
00000280: 3b78 92bc 5a6f 57b9 0977 36bb 3f83 a0bc
00000290: 53e1 b73b 88df febc 3bc0 85bc 669f d0bd
000002a0: 977f 943c 2b0a 8abd 842b 543b 30bc a83b
000002b0: 795f 773d f199 92bd b6ca 54bd d5e3 4c3d
000002c0: 47a8 d0bd 3828 adbb a675 233d 8ea4 d8bc
000002d0: 8588 5cbb 8a89 943d 6643 01bd d966 aebd
000002e0: 67cf 0fbd 0bf3 c73b 4375 443c d09b 05bb
000002f0: 9244 d4bc 0b5e d2bc cdb8 5bbc 03f4 75bc
00000300: 17b8 163d 37f4 99bc 7497 033d fdc0 aabc
00000310: 7fd1 78bd 766c 403d d693 ad3c 6ca8 113d
00000320: cd01 96bd 5e98 903d 4da8 17bc 885d 01bd
00000330: c1cd 92bd 946b 41bc 59bb 3abd e0c7 d6bc
00000340: 6583 3f3c f92b 17bd a8ac 59bd 2fb7 253b
00000350: a462 b0bc 8627 a7bc 1101 62bd 4761 61bc
00000360: 11dc 153d 008c cebc 7256 7f3c 31f7 cd3a
00000370: 58d9 0abc fc8a 243d c180 80bd bc67 84bd
00000380: cb1f d23c 2fbd 0bbd 13b2 6b3c b17c 763c
00000390: 3e46 253d a43d a33c 1c70 6bbc 6a2a 8c3d
000003a0: a702 773d c6b4 8d3d 2d15 9bbd 7cec e6bc
000003b0: 5916 7e3d 002c dfbb 3f45 503d 0303 a43d
000003c0: 9680 573c c15c cabc 323c c5bc 1808 823c
000003d0: d802 2bbc de97 96bb c770 0bbd 1b22 2bbc
000003e0: 4b30 873a 803d ffbc b428 29bd 7793 97bd
000003f0: 8a46 bc3c 2bcd fabc 2873 4ebd fcd4 e93c
0.009036171 -0.047349233 -0.07325821 -0.02160668 -0.016468534 -0.028155198 -0.028768433 -0.037140142
0.023307167 -0.08187007 0.0012423513 -0.059806537 -0.05427248 0.034276217 0.026148466 0.0254676
0.08604191 0.07561732 0.072515205 -0.08737045 0.07523186 -0.0107281795 -0.047567293 0.053541932
0.04788392 -0.014627364 -0.027388018 0.09680242 -0.03696491 0.03752116 0.05532882 -0.06292088
-0.01954064 0.05070283 -0.0022885262 -0.031042108 0.03313428 0.062124003 0.0035342197 -0.13754615
-0.05870371 0.026970893 -0.15814224 -0.02195634 -0.05760385 0.11884015 0.010790295 0.055157103
0.007229052 -0.0449228 -0.00843465 -0.0004192084 -0.088584885 -0.04963701 -0.019150164 -0.035512004
-0.08967084 -0.024444405 0.0017141827 -0.056253523 0.15612863 0.081265695 0.12457322 -0.034146186
0.006699483 0.050852347 -0.11636224 -0.063930556 -0.010869309 0.011227748 0.058037616 -0.0102295065
-0.006296208 -0.006279561 -0.04071006 -0.0045589847 0.021736497 -0.060179576 -0.035999462 -0.065700464
-0.122928485 -0.061033603 -0.070170924 -0.11106111 -0.035556834 -0.05996719 -0.088334806 -0.026979003
0.0015459287 -0.07423179 -0.096783474 -0.029805208 -4.3013562e-05 -0.1350888 -0.036213662 0.0028048141
-0.06383243 0.041229706 0.067428194 0.092428766 -0.020897828 -0.009685145 -0.061853826 -0.045160264
-0.012527751 0.0051505854 -0.04856946 0.0062668337 -0.057053767 0.008279376 0.11717935 -0.046210576
-0.06165345 0.018682653 0.03034067 -0.03431282 0.048241895 -0.07244439 0.0012227391 0.010457787
0.0104606645 0.12720467 0.094862394 -0.034585707 -0.022624642 -0.040530916 0.054070126 -0.025637742
-0.057747845 -0.024462752 -0.062172182 -0.02473432 0.029431209 0.029447094 -0.006482641 -0.121538915
-0.084424295 -0.08938098 -0.008212957 -0.013243453 -0.053943843 0.020281967 0.030561242 0.019264292
0.03493845 0.030140786 0.03751742 -0.07014523 -0.08492645 -0.039347343 -0.053048972 -0.003259756
0.02313527 0.098831356 0.13246138 0.11035386 -0.034572005 0.009041791 -0.044755936 -0.044777133
-0.017879596 -0.0002054548 -0.0027841947 -0.019593833 0.0056115775 -0.031112447 -0.016327014 -0.10186653
0.018127246 -0.06740221 0.003237457 0.005149387 0.060393784 -0.07158268 -0.051951133 0.050021965
-0.10188346 -0.0052843355 0.03990712 -0.026445653 -0.0033650708 0.07252796 -0.031558417 -0.085157104
-0.035109904 0.006101971 0.011990848 -0.002038706 -0.025911603 -0.025679609 -0.013410759 -0.01501179
0.036796656 -0.018793209 0.03212686 -0.020843977 -0.060746666 0.046978436 0.021188658 0.03556101
-0.07324562 0.07060312 -0.009256435 -0.03158334 -0.07168151 -0.011805434 -0.045588825 -0.026218355
0.011689042 -0.03690717 -0.053143173 0.0025286188 -0.02153141 -0.020404588 -0.0551768 -0.013756103
0.036586825 -0.025213242 0.015584575 0.0015713928 -0.00847467 0.04017161 -0.06274558 -0.06465098
0.025649926 -0.034115966 0.014385718 0.015044377 0.04035019 0.019926853 -0.014369991 0.06844027
0.060305264 0.069192454 -0.07572398 -0.028188936 0.06203303 -0.006810665 0.05084729 0.08008387
0.013153216 -0.024702432 -0.024076555 0.015873 -0.01043769 -0.0045957407 -0.0340431 -0.010445143
0.0010314075 -0.031157255 -0.041298583 -0.074011736 0.022982854 -0.03061541 -0.05040279 0.028543942

encoder.c2.main.3.bias f4 [64]
00000000: a22e 913a eb7c db38 aaeb a63a 4142 0b3a
00000010: 9d6a 13ba c669 3a3a 2cfa 083a d616 62b8
00000020: 36e5 63ba 1e0f 913a 11a5 2dba 7cc9 beb8
00000030: e743 41b9 eddc 4f39 dbf2 b2ba 99f7 90b7
00000040: c593 9a3a 2368 8db9 0a6b 6eba 33cc 033a
00000050: e530 3dba b155 3c3a 97e6 33ba 0362 3cba
00000060: 416d f539 339f 49ba 22df d439 9821 a139
00000070: 93bf 0c3a 5f0b 623a 33d9 5b3a d6b7 a6ba
00000080: a05d 5b39 3bde 4cba 5097 c33a 82af 9239
00000090: e0f9 adb9 d694 043a 2620 a5b9 0c65 fd39
000000a0: 368d 2239 0f8e 0e3a 33a1 9cb9 3815 c439
000000b0: 1ef1 ac39 42c8 313a 1166 b8b9 4f8c 3b39
000000c0: d0bb 3eba 47af ccb8 017c 67b9 1418 64b7
000000d0: cc54 b3b8 ad39 34ba 1f5b 80ba 552e a539
000000e0: bbf2 7c39 461f bb3a 1c5e b538 6bd2 0a39
000000f0: c85b 4fb9 ab0b 28ba b5ec 8039 ab6d 15b9
0.001107652 0.000104660015 0.0012735028 0.0005312302 -0.00056234916 0.00071110984 0.0005225267 -5.3903867e-05
-0.0008693518 0.0011067127 -0.0006624023 -9.0974354e-05 -0.0001843121 0.0001982336 -0.0013652699 -1.7281434e-05
0.0011793306 -0.00026971204 -0.00090949296 0.00050276815 -0.00072170637 0.00071844 -0.00068626687 -0.0007186236
0.00046811442 -0.0007691264 0.00040602038 0.00030733342 0.0005369123 0.000862291 0.0008386552 -0.0012719582
0.00020920346 -0.00078150973 0.0014922414 0.00027978054 -0.00033183303 0.00050575787 -0.00031495205 0.00048331206
0.00015502129 0.00054380385 -0.0002987474 0.00037399842 0.00032986043 0.0006781855 -0.0003517126 0.00017885979
-0.0007275911 -9.760126e-05 -0.00022076072 -1.3595465e-05 -8.55118e-05 -0.00068750494 -0.0009792781 0.00031505772
0.00024123017 0.0014276288 8.648282e-05 0.00013239092 -0.0001977525 -0.000641043 0.00024590423 -0.00014250602

encoder.c2.main.4.weight f4 [64]
00000000: 1363 793f 0ad8 813f 6e34 7b3f 5f18 733f
00000010: 2728 6d3f 5fd5 7f3f cbfc 833f 2fe3 823f
00000020: c1e7 833f a08c 773f 2c83 723f 3fa5 703f
00000030: c31b 773f b142 793f e94c 783f 4800 7f3f
00000040: 39f7 703f 3ac3 773f 3545 7f3f af81 843f
00000050: 00d8 893f 3fcc 733f 2bca 803f 84df 7d3f
00000060: 73ce 7e3f 929b 833f cc2a 833f 35e8 803f
00000070: 02c8 843f 92cf 6c3f 1aed 783f 7644 883f
00000080: 50f3 7c3f 6b24 833f 0a48 763f 9c73 763f
00000090: 13b3 843f 863e 803f 4e93 703f beb6 7d3f
000000a0: 6031 7d3f d49d 823f 6764 803f 8ba3 7e3f
000000b0: aa35 743f 07d4 6f3f 7490 823f 9c59 803f
000000c0: fe30 853f 8308 723f bdec 793f f403 833f
000000d0: 7452 753f ebd2 733f 7b9f 803f 93af 763f
000000e0: 9d59 883f 2c83 783f 5388 733f c78d 7c3f
000000f0: aad5 823f ca54 863f 1561 723f a636 843f
0.974168 1.0144055 0.98126876 0.9495906 0.9263939 0.99934953 1.0311521 1.0225581
1.0305101 0.9669895 0.947314 0.94002146 0.96526736 0.9736739 0.96992356 0.99609804
0.9412723 0.9678227 0.99714977 1.0352076 1.0769043 0.9523353 1.0061697 0.9916918
0.99533767 1.0281851 1.0247436 1.0070864 1.0373538 0.9250423 0.9723679 1.0645893
0.98808765 1.0245489 0.9620367 0.96270156 1.0367149 1.0019081 0.9397477 0.9910697
0.98903465 1.0204415 1.003064 0.99468297 0.95394385 0.93682903 1.0200334 1.0027347
1.0405576 0.9454424 0.9762686 1.0235581 0.9582894 0.9524371 1.004867 0.96361655
1.0652348 0.9707515 0.9512989 0.98653835 1.0221455 1.0494626 0.94679385 1.0329177

encoder.c2.main.4.bias f4 [64]
00000000: 5468 31be 2627 a4bd 2364 89be 2eb2 9cbe
00000010: 5083 8abe 03f9 44bd 2e89 87bd 4a44 18be
00000020: 8fbf 0cbe 3461 24be c925 03be 1d32 9dbe
00000030: bfd3 7dbe ed88 a2be 73a2 0fbe 6f09 14be
00000040: 1e85 debd 5cbd 41be 8aa0 10be c46a 04be
00000050: e1db b6bd a408 1cbe 4a4c 06be 6296 01be
00000060: 9647 88be f057 2cbe 13d1 3fbe a4e6 64be
00000070: 3f92 31be 974a 2dbe 6eae acbe 1cc2 1bbe
00000080: 70f3 64be 50c6 b4be ef6d 50be c28f aabd
00000090: f144 aebe 46e4 20be a35b 81be e4ec 3cbe
000000a0: 98dc 17bd a6a2 19be 4799 07be bbcf a7bd
000000b0: 60bb a4be 1a22 6abe e3fb 09be c631 44be
000000c0: ccd6 3bbe d698 77be 3470 30be 0bf1 f9bd
000000d0: d0b5 5bbe a799 d2bd 750d 90bd fe07 9fbd
000000e0: f1c0 903a 79c9 22be 56cf 42be 0e31 5abd
000000f0: 8a98 27be b84a 31be 9ac7 73be e8c0 29be
-0.17324954 -0.080152795 -0.2683421 -0.3060469 -0.27053308 -0.04808904 -0.06617962 -0.148698
-0.13744949 -0.16052705 -0.12807383 -0.30702296 -0.24787806 -0.3174509 -0.14026813 -0.14456724
-0.10865234 -0.18919891 -0.14123741 -0.12931353 -0.08928657 -0.15237671 -0.1311504 -0.12655023
-0.26617116 -0.1683042 -0.18732099 -0.22353607 -0.17340945 -0.16922985 -0.3372683 -0.15210766
-0.22358489 -0.3530755 -0.20354436 -0.08328201 -0.34036973 -0.1571208 -0.25265226 -0.18449742
-0.03707561 -0.15003452 -0.13242064 -0.08193918 -0.32174206 -0.22864571 -0.13474993 -0.19159612
-0.18343657 -0.24179396 -0.17230302 -0.122041784 -0.21456075 -0.10283213 -0.07033817 -0.07765196
0.0011043829 -0.15897168 -0.19024405 -0.05326944 -0.16366783 -0.17313659 -0.2380661 -0.16577494

encoder.c3.0.weight f4 [32, 64, 3, 3]
00000000: 13bf 2abd 7ef0 1fbd 7035 90bb 5087 543d
00000010: 7640 88bd a5b5 333d 9cf0 74bd fbdd 91bc
00000020: 58ad a5bc 0eb7 c33a fb2a 873d 9520 a13c
00000030: cf06 053d 2f6a 803c 1314 ab3c 8f1c cbbc
00000040: 2a28 8ebb 466f ebbc 863f eb3b 00db 6abd
00000050: 50d6 de3c b637 55bc 2c4c 9f3d b529 583d
00000060: 1b65 aa3c fae6 3c3d 1e8e 383d 682f 823d
00000070: a431 b63b b373 95bb 3125 b43c 178b 44bc
00000080: 12e5 e33c c6dd 903b 28c9 293d a9c1 2b3b
00000090: f208 48bd 2918 85bc 8949 a73d 379c de3c
000000a0: c0f3 7dbd 031f af3d 9627 23bc 66f9 17bd
000000b0: 9c88 fb3b e7a1 5bbd 804d a93d 7bcb 59bd
000000c0: 1517 d33b 376c 423b 856f adbd 50d8 acbc
000000d0: f4c4 28bb 95c1 23bd 3c49 f9bc 42af 0d3d
000000e0: 9c29 5abb 4576 fcbc 5d6e e23c b482 63bb
000000f0: 989d a83d e72d 38bd ab17 813d 1e28 203d
00000100: 27a8 c83b 8b9f e4bc c160 23bd 12a6 c93b
00000110: 17cc 783d 1a8e ba3c 3c4b 3bbc 6cfd 343d
00000120: df10 5fbd 5967 e53d f77b 9e3c cba8 98bd
00000130: 0316 f2bc 2960 30bd 1f8a 71bd 6f75 593d
00000140: ef70 e0bc 56aa f2bd 7d25 57bd eb1e 80bd
00000150: f3b1 2bbd fded a6bc 3ccb 9a3c a4ea 003e
00000160: a99d 8d39 7c5b 313c 9fda 18bd 1428 77bc
00000170: c406 183d cf5c 653d 4497 39bc c845 96bd
00000180: 87b3 22bd 4806 63bd 12e4 04bd 50be 6b3d
00000190: 2551 4b3d f5de 703d c920 3b3d 5d65 8c3c
000001a0: b4b9 3a3d 909c 183c ff59 dcbc a6b1 c4bd
000001b0: a8ee 413d 82af 87bd d8fa 443c e83e 783d
000001c0: 145b 82bc 0fae 773c e68f 49bd a77a 19bd
000001d0: 330e 353d 1e8b b6bd 59bb 81bc 91ec 45bd
000001e0: c90f dfbc d14a 22bc 4d10 27bc 117b 93bd
000001f0: c755 c2bb 8fde 45bd 8a96 043d 98f6 cb3b
00000200: 93cd 5b3d ed8a 5b3d 227b 003c 5cba 3bba
00000210: 1afd 38bd 0436 0b3d 4460 4bbd df91 40bd
00000220: ec10 07bd d0b0 b9bc 9bcd cabc dda6 1a3d
00000230: 975a 923d 9b4b 8dbd ab89 013d 2d57 6b3d
00000240: 4a39 63bd b8f3 bbbd 5329 bebd e86e 6bbb
00000250: d5be 243d 7627 93bd ddf1 9a3d 1a56 82bd
00000260: 489c a83b d35d f03b e2fa 76bc e126 8a3b
00000270: ca49 cebc 949e d03c 6947 2e3d ce24 973c
00000280: dcdc 5d3d 9705 b63c d554 0b3d 2aa4 b7bd
00000290: 717b 0dbc cb17 a43d 5b90 e3bd 9e03 edbd
000002a0: 400e 66bc 0602 dcbd fa7b 22bd d5c1 773d
000002b0: 80f4 2f3d df50 2a3d 881a 813c 6d06 3d3d
000002c0: a1b3 dc3d 6e7b aa3c ff48 b33b 2a9f 8cbb
000002d0: b85e ba3c ecd6 29bd 5ca0 943a 6d04 0c3d
000002e0: 0125 22bd 0292 af3d f3be cb3b 1739 bcbc
000002f0: f2ec ce3c c4f0 cbbd 9772 a0bc ef5f 3fbd
00000300: a4b0 ae3d f33e 1e3d 7c02 963d 1036 b9bd
00000310: 5f37 a5bc a77f a9bd 5421 ebbb 33fd e43c
00000320: c26a 2dbd 978b 80bd 89d4 30bd b08f 353d
00000330: a242 49bd 6d1b dc3c d37c 5a3d 67fb cebc
00000340: 64e2 6abd 6504 b7bd 38f4 d23b 1185 f2bc
00000350: 0fe0 b93c 01b5 ba3c c9df a73d 5c07 48bd
00000360: 8234 183d 8d82 14bd a536 8bbd 106d 753d
00000370: 88ba 813d e039 493d fb66 053d a5b6 703b
00000380: f24b 863d b9a4 42bd 5a1c 46bc 4c0a 8abd
00000390: ae10 b43b 0c3b e63c 9012 ba3c 7ce9 75b9
000003a0: bbd9 be3c 91cc d03d 3b82 233c 53d8 03bd
000003b0: 9867 053d 5f08 413d 90ab c3bd ce17 8cbd
000003c0: 3ac9 ceba 46b1 9b3d 4b03 0f3c d318 093d
000003d0: 6b0e 363a 1737 b33d 1488 7b3d 2019 9cbd
000003e0: bedd d13c 0b9a dabc cb94 01bd 08e2 44bd
000003f0: c7f9 87bd baef 13be 14f7 59bd ab3e 3a3d
-0.04168613 -0.03904771 -0.0044009015 0.051886857 -0.0665292 0.0438744 -0.059799775 -0.017806044
-0.020224258 0.0014931874 0.06599995 0.019668857 0.032477196 0.015675632 0.020883596 -0.024793891
-0.004338284 -0.028739583 0.0071792034 -0.05733776 0.027201802 -0.013013771 0.077782005 0.05277415
0.020800164 0.046118714 0.04505741 0.06356698 0.005560117 -0.0045609116 0.02199039 -0.011996052
0.02781919 0.0044209687 0.041451603 0.002620796 -0.048836656 -0.016246872 0.081683226 0.027174098
-0.062000036 0.08550837 -0.0099581685 -0.03710308 0.007676197 -0.0536212 0.08266735 -0.05317257
0.0064419606 0.0029666552 -0.08468536 -0.02109924 -0.0025752159 -0.039979536 -0.030430429 0.034590967
-0.0033288961 -0.030818114 0.027640516 -0.0034715356 0.082331836 -0.04496565 0.063033424 0.03910076
0.006123561 -0.027908107 -0.039887194 0.0061538303 0.06074151 0.022772837 -0.0114315115 0.044186994
-0.05445945 0.112013526 0.01934622 -0.0745407 -0.029551512 -0.043060455 -0.058969613 0.05309051
-0.027397601 -0.11848895 -0.052525986 -0.06255897 -0.041917752 -0.020377154 0.018895738 0.12589508
0.00027011082 0.010825034 -0.03731787 -0.015085239 0.037115827 0.055996712 -0.011327568 -0.073375285
-0.039721992 -0.055425912 -0.032444067 0.057554543 0.049637932 0.05880638 0.045685563 0.017138178
0.045587257 0.009314671 -0.026898382 -0.09604196 0.04734674 -0.06625272 0.012022696 0.060606867
-0.01591257 0.015117182 -0.049209498 -0.037470486 0.044202995 -0.08913253 -0.015836405 -0.04832131
-0.027229207 -0.009905533 -0.0101967575 -0.072012074 -0.0059306356 -0.04830795 0.032370128 0.0062244646
0.053662848 0.053599287 0.007841857 -0.00071612536 -0.04516325 0.03398706 -0.049652353 -0.047014114
-0.032975122 -0.022667319 -0.024756243 0.03775679 0.07146185 -0.06899186 0.03162543 0.057456184
-0.055474557 -0.09177345 -0.09285226 -0.003592426 0.040221054 -0.07185261 0.07565663 -0.06364079
0.0051455833 0.0073354035 -0.015074464 0.0042160605 -0.02518167 0.025466241 0.04254857 0.018450167
0.054165706 0.022219462 0.03401645 -0.08966859 -0.008635388 0.08012351 -0.11111518 -0.115729555
-0.014041483 -0.107425734 -0.039669015 0.060487587 0.042957783 0.04158103 0.015759721 0.046148706
0.10776449 0.020810809 0.0054713483 -0.004291435 0.022750244 -0.04146473 0.0011339295 0.03418391
-0.03958607 0.08572771 0.0062178313 -0.022976441 0.025259469 -0.09958032 -0.01958589 -0.04672235
0.08529785 0.03863425 0.073246926 -0.09043515 -0.020168005 -0.08276301 -0.007175604 0.027952766
-0.04233814 -0.06276625 -0.04317144 0.044326484 -0.04913581 0.026868546 0.053341698 -0.025266362
-0.05734481 -0.08936385 0.0064378045 -0.029604467 0.022689847 0.022791388 0.081969805 -0.048835143
0.03715945 -0.036257315 -0.06797532 0.059918463 0.06334406 0.04912746 0.032568913 0.0036729958
0.06557454 -0.047520373 -0.0120917205 -0.06740245 0.0054951524 0.028104328 0.02271393 -0.00023452
0.023297181 0.10195268 0.00997978 -0.032188725 0.032569498 0.047127124 -0.09554207 -0.06840478
-0.0015776523 0.076021716 0.008728812 0.03347094 0.00069448975 0.08750742 0.06140907 -0.0762198
0.02561843 -0.026684782 -0.03163604 -0.048067123 -0.06639438 -0.14446917 -0.053214148 0.04546992

encoder.c3.0.bias f4 [32]
00000000: ce4a 773a 3ffd 6cba 49db fe39 3171 d7b9
00000010: a07c bb3a bdea 4d3a 0763 963a face 9839
00000020: dc99 3bba cc2c a1b9 6082 f7b8 a22d 9bba
00000030: bff6 bd38 ea9f a6b9 bfd4 353a 6fa8 d939
00000040: 5b79 b6b8 9b18 12bb d113 80ba 6284 90ba
00000050: ccfe acba d82e ffb7 1477 80ba 673c 8739
00000060: 2dbe 2a3a 2cc5 d83a c8be 32ba f6b5 893a
00000070: d25d 6839 38b6 da39 b906 d739 bb9c 12ba
0.0009433449 -0.0009040422 0.00048610035 -0.0004109233 0.0014304109 0.0007855108 0.0011473604 0.0002914591
-0.0007156411 -0.0003074169 -0.00011802162 -0.0011839161 9.058182e-05 -0.00031781133 0.00069363037 0.00041514958
-8.7010405e-05 -0.0022292498 -0.0009771531 -0.0011025781 -0.0013198494 -3.0420182e-05 -0.0009801113 0.0002579421
0.0006513324 0.0016538254 -0.000681859 0.0010506499 0.00022160195 0.00041715964 0.00041013004 -0.00055928127

encoder.c3.1.weight f4 [32]
00000000: 42ac 0940 6c44 0040 b639 ff3f 642d 0540
00000010: f4a8 fe3f 3060 0040 ecfc 0f40 5c52 e43f
00000020: 4270 0240 082a e13f 1864 0940 abbb f63f
00000030: 1991 1640 18d6 d33f cc41 ed3f bf1e 2740
00000040: 7c14 0540 eb1b e03f a5f1 0540 3323 c23f
00000050: 6740 f63f 7f2d 0e40 5516 1840 70c4 e13f
00000060: 5d7f f23f b4b7 f93f 1ff1 0d40 1cc6 2a40
00000070: a300 1640 c986 0340 7106 ea3f de32 0440
2.1511388 2.0041761 1.9939487 2.0808954 1.989531 2.0058708 2.2498121 1.7837634
2.0381017 1.7590952 2.1467342 1.9276022 2.352606 1.6549711 1.8535705 2.6112516
2.0793753 1.750852 2.0928738 1.5166992 1.9238404 2.2215269 2.376363 1.7638073
1.8945118 1.9509187 2.2178419 2.6683416 2.3437889 2.0551016 1.8283216 2.0656047

encoder.c3.1.bias f4 [32]
00000000: e693 e83d 30bc 0ebe b618 203e ebc5 f8bc
00000010: ff26 53be e424 d6bd 0913 1a3d 6538 893d
00000020: 3439 d43c 936b 8dbe af2c de3d 7fb0 3dbe
00000030: f264 07bd 1317 1d3e f158 88bd 6ef5 17be
00000040: cb3d 263e 1f28 6ebe d09f 093e d0eb d5bd
00000050: 43e8 a0bc 6c40 db3d 40ca 8abd 7f98 85bd
00000060: a4c2 273e 3481 88be 3c44 9c3c 4c54 ad3a
00000070: 0d95 10be 7516 723b 06fa d2bd c37b 003e
0.113563344 -0.13938975 0.15634426 -0.030367812 -0.20620345 -0.10456255 0.03761581 0.067002095
0.025906183 -0.27621135 0.108483665 -0.18524359 -0.033055253 0.15340833 -0.06657589 -0.14839718
0.1623451 -0.23257492 0.1343987 -0.10445368 -0.019642001 0.10705647 -0.067768574 -0.06523227
0.16382843 -0.26661074 0.019075505 0.0013223975 -0.14119358 0.0036939655 -0.103015944 0.12547211

encoder.c3.1.running_mean f4 [32]
00000000: 85ae 79bd ebf9 babd 9e00 79bd c8a0 2a3e
00000010: 03f4 1f3f 28c5 5bbe a7cf 233e 6b81 b03e
00000020: 5f1b 0d3e 16c0 823b 3c24 91be 1214 823f
00000030: 37f5 4ebd eb51 cfbd 1750 5fbe 2636 3c3e
00000040: b180 5a3e f940 963c f546 1ebe c607 4b3f
00000050: d629 d4ba 8d35 a9be d671 213e 99d5 ea3d
00000060: d82e c6bd 6cf5 21be a79b 42be 0a60 e53c
00000070: 1264 45be 970b fbbd 4dbf ae3e 4160 fc3e
-0.06095745 -0.09129699 -0.060791604 0.16662896 0.6248171 -0.21461928 0.15997182 0.34473738
0.13779972 0.0039901836 -0.28347957 1.0162375 -0.050526824 -0.101230465 -0.21807896 0.18380031
0.21338154 0.018341528 -0.15456755 0.79308736 -0.0016186784 -0.33048669 0.15766081 0.11466522
-0.096769035 -0.15816277 -0.19004689 0.027999897 -0.19276455 -0.1225807 0.34130326 0.49292186

encoder.c3.1.running_var f4 [32]
00000000: 25b2 0a3f 8c9b 003f 7408 3d3f 1ef3 f03e
00000010: 0383 083f cdbe cf3e 428f e43e 26e4 3f3f
00000020: f7fe 293f 3825 103f a262 003f 7b18 133f
00000030: e29b ee3e 467b 153f 4f4e 123f 6353 1a3f
00000040: 07b5 123f 2740 0c3f 3335 123f cbff 6a3f
00000050: 259f 273f 45db 0e3f e803 193f 2280 883f
00000060: 7a52 093f 8c00 003f 2cf8 0e3f 7e9f dd3e
00000070: 95c0 093f c95e 3b3f b435 1d3f 76ad 0f3f
0.54178077 0.50237346 0.73841023 0.47060484 0.5332491 0.40575257 0.44640547 0.749575
0.6640467 0.5630679 0.501505 0.5745923 0.46603304 0.58391225 0.5715074 0.6028349
0.57307476 0.5478539 0.57112426 0.9179656 0.6547721 0.5580333 0.59771585 1.0664103
0.53641474 0.50000834 0.5584743 0.43285745 0.5380948 0.73191506 0.6141007 0.56124055
